models/model.pth (torch, 16071 bytes, 9 tensors)

net.0.weight f4 [32, 2]
00000000: 9de3 27bf 75bc 06bf 3291 9a3e 9825 babe
00000010: fac2 b73c 2ab1 66bc 8203 133f c2a1 a4be
00000020: feac 85be f8a0 e4be 734d d83e 083b 903e
00000030: 559c a13e baa9 ecbe 7988 273f 0e96 ce3e
00000040: 61cd 28bf 278b 7abe 6339 0e3f 0c6c 833e
00000050: ba46 04bf 535f aabe 2a29 34bf 3fc4 27be
00000060: 5840 0bbf ff26 48be 2814 10bf 39f8 073f
00000070: 0a8e e9be b49a b33e 2c2e c03d 0501 5dbd
00000080: 8c99 2b3e 9ef7 513e 656c 9a3e 11ae 93be
00000090: 2b48 4e3f dfc9 02bf 7c42 283e 6ae1 6c3e
000000a0: 24b4 52bf e807 96be 668a 033f 7e59 e93d
000000b0: 0960 ce3e 0153 293f 685c 1c3e 13db 973e
000000c0: 8586 0abe 32db 3c3d 469d b83d fb7f babe
000000d0: d872 18be 55b9 0dbe 7b09 78be 5baf f93e
000000e0: 2eaf 36bf 4f96 7a39 5a24 4abe 006b ba3e
000000f0: e399 d3be eda0 813e deb1 b23e 08f4 dabe
-0.65581685 -0.5263131 0.301889 -0.36356807 0.02243184 -0.014080325 0.5742723 -0.3215466
-0.26108545 -0.4465406 0.4224659 0.28170037 0.31564584 -0.4622324 0.65442616 0.40348858
-0.65938383 -0.24467145 0.55556315 0.2566837 -0.5167042 -0.33275852 -0.7037531 -0.16383456
-0.54395056 -0.19546126 -0.56280756 0.5311313 -0.4561618 0.35078967 0.093838066 -0.05395605
0.16757792 0.20504615 0.30160823 -0.2884374 0.8057887 -0.5108928 0.16431612 0.23132864
-0.8230612 -0.29302907 0.51383054 0.113940224 0.40307644 0.6614228 0.15269625 0.29659328
-0.13527878 0.04610748 0.090143725 -0.36425766 -0.1488756 -0.1384023 -0.24222367 0.48766598
-0.71361053 0.00023897852 -0.1974043 0.3640976 -0.41328344 0.2531809 0.34901327 -0.42764306

net.0.bias f4 [32]
00000000: 398a 39be a6cb 2e3e 8011 1a3f 04b4 133e
00000010: 0fd0 a8be dad0 11bf a8cf 4a3f de7e 39bf
00000020: 418a 2c3f e5e0 10bf d6ad 2f3f bc6c e83e
00000030: cb13 31bf e215 52be c73c 4dbe d5b7 243f
00000040: d0b5 d7be 3c38 853c 39e9 febe 635a cebe
00000050: eaef 17bf 790d e9be 34a6 00bf bbfc 49bd
00000060: 289d 19bf 2eaf 8f3e fc6d 13bf 1830 d83e
00000070: 7a5b 553e 175b b93e a6fb 2dbe c654 f4be
-0.18119134 0.17069873 0.6018295 0.1442414 -0.32971236 -0.5695931 0.7922311 -0.7245921
0.6739846 -0.5659316 0.6862463 0.45395458 -0.69170827 -0.2051616 -0.20042716 0.64343005
-0.421309 0.016262166 -0.4978731 -0.40303335 -0.59350455 -0.4551809 -0.50253606 -0.04931329
-0.60005426 0.2806334 -0.575897 0.42224193 0.20835677 0.3620231 -0.16990528 -0.47720927

net.2.weight f4 [32, 32]
00000000: a35c 393e e700 a8bd d95b 0d3c faee c1bb
00000010: 8072 e3bc 9f6a 3bbe 74b2 ecbd d1ce 06bf
00000020: 5641 9c3e 39c5 76be 894f 1e3f a931 b53e
00000030: bd88 bbbd 3534 f2bc 7d3f 0bbe 46ae f93d
00000040: 990f c23d fb71 6abc 361e fa3d 41a5 8abd
00000050: 07a0 a3bd ea51 88be 1e2f 14be 1a34 01be
00000060: 2c68 c83d cea7 e5bd 168f 16be 5635 23be
00000070: 9e58 b63d 507e 7abd 5489 323e 2733 edbd
00000080: 17e2 2e3c 68a4 6ebd 4f18 803d 0b9f b9bc
00000090: 880a 053d 1639 60be 49a0 18be 2962 96bd
000000a0: 753c 5abd 2d37 3e3d 0d95 bd3d 2a3c 7cbd
000000b0: 40b2 9cbd 6c8f 4bbd fb02 5d3d f78e abbc
000000c0: 4482 04be 5996 0a3e b45a c1bb c78e 4abe
000000d0: 9fe7 32be 0859 06be 97a9 34bb ae4d 03be
000000e0: 59d3 14be 2752 1cbd 9c55 133e 8aed 75bd
000000f0: 826f 053e 54e7 e93d 1c8f 913c 460f 713c
00000100: c780 113c f6c9 0abe 10c9 5abd 2ef9 d6bd
00000110: 5763 633d 9f6f debd 420d e9bd 5798 bcbd
00000120: 1311 703d d1d0 0dbc 544e b53d fe52 02be
00000130: c7cd 0ebe c5c8 033d 6a0b dfbd 26d3 d2bd
00000140: 7b77 7abd feaf 5bbd 2784 dd3c 9e6a 51be
00000150: 8238 9abc 208c e2bd 7f34 513b 09df 24be
00000160: 387c 8abd e44b 69bd 89a2 403d 51d3 c7bb
00000170: 890d 6ebe 23ec 74bd 2976 0abd f908 233c
00000180: e15f 0b3d 0232 e7bd 9c9e 05be 486f 3e3d
00000190: 5332 fd3d 9b5c 873c ea27 4ebe c50d ebbb
000001a0: baa9 00be 17fc 303d c69d 383d 906e 1d3e
000001b0: d209 5bbd 2ef6 b3bd b5f3 19bc c8e2 ecbc
000001c0: afde 2cbe 08c4 f93d 7b03 8a3d 02ff 63bc
000001d0: a9b1 5cbd 45a9 163e 7cb0 013e 3f5a 98bd
000001e0: 1a7e 0ebe adda 34be 55c4 1f3e 821a 75bd
000001f0: 4720 e53d fba4 45be eb3c d3bd 990a 603e
00000200: 55dd 263e c682 ba3d 5017 433d a33a c13d
00000210: 4f64 df3d f2b5 95bd 9355 21bc ec85 ec3c
00000220: dc5a d03d e649 6abd 6e32 9d3c dc42 1b3e
00000230: b97e 5bbd ec6e 353e 986b 9d3b 4bd5 f13d
00000240: 6ded 673c b143 bb3b 8945 0cbe e217 643d
00000250: cc26 63bc 3239 d4bc dcca 16be eee6 00bc
00000260: 434c a53c f92b e93d 8e86 1e3d 528b 8b3d
00000270: dcaa 163e 0e2e 9abc bee5 20bc 30b5 603d
00000280: ad16 4abe c05b 633d f48f 15be e508 433e
00000290: 5bad 39be 5663 a53d 736b e3bd 0897 e43c
000002a0: 710b 90bd e2c6 e33d 1762 b73c d293 67be
000002b0: 2643 69bc c167 df3d 342e acbd a0c0 2e3e
000002c0: 2760 95bd 198c 4f3e cc95 493e 2335 80bd
000002d0: 4fa4 88bd ac9d 323d 634f ecbc 059a af3d
000002e0: 6f94 b7bd 35f8 0a3b 6cf5 083d ca21 78bd
000002f0: a021 20be 03c7 6d3b 1b97 15bd 34c0 683d
00000300: 9c92 ed3b f4cd 633e 4b2a 2d3d 9d52 863e
00000310: 7f7b 153e ee4a 073e 8f7b 963c 5a33 7d3d
00000320: 1d09 71be 4d17 5f3e e6f2 adbd 1f78 96be
00000330: 86ad a13d 0ada aebe 12c0 a3be 48cd 2cb9
00000340: ebb0 313e 292f a83e 3eb2 c23d de38 9abd
00000350: 2362 e53d e622 303d af6e 33be edc2 7c3d
00000360: d161 313a 08dc 413e 6b83 24be 1eec 14be
00000370: 15f8 67be 5692 54be ae30 76bd 3e16 4a3e
00000380: 266f a43d d06f 70bd 94aa 05be 0ea0 bb3d
00000390: 5a1c debd 96c1 20bc a787 103d 6f4d 823e
000003a0: 83b0 a93c 303b e63d af85 283d e48f cf3c
000003b0: d48d 353e 4a5d b7bd cd97 f1bd 68b6 1fbe
000003c0: db3a 83bc 7815 3abe 4693 44be e319 2e3e
000003d0: b430 353d bfed debc 770a 06be 631c 01be
000003e0: b5b1 9f3d d051 613e 6997 29ba 600f 8dbc
000003f0: 2517 993d 6ff0 393e 58cb d1ba 39f8 50be
0.18101744 -0.08203297 0.008627855 -0.005918381 -0.027764559 -0.18302391 -0.11557475 -0.52659327
0.30518597 -0.24098672 0.6184011 0.3538945 -0.0915694 -0.02956591 -0.13598438 0.12191443
0.09475631 -0.014309402 0.122127935 -0.06769801 -0.07989507 -0.26624995 -0.14471099 -0.12617531
0.09785494 -0.11213647 -0.1470302 -0.15938315 0.08903621 -0.061155617 0.17435199 -0.11582022
0.010674021 -0.05826226 0.062546365 -0.022658845 0.032480747 -0.21896777 -0.14904894 -0.07342941
-0.053280313 0.04643934 0.09256945 -0.061580814 -0.07651186 -0.049697325 0.05395792 -0.020942194
-0.12940317 0.13533916 -0.0059007052 -0.19781028 -0.17471169 -0.131199 -0.0027566904 -0.12822601
-0.14533748 -0.038164284 0.14388126 -0.060040988 0.13030818 0.114210755 0.017768435 0.014713114
0.008880801 -0.13553604 -0.053414404 -0.10496746 0.05551466 -0.10861134 -0.11379482 -0.09208744
0.058610033 -0.008655743 0.088528305 -0.12726972 -0.13945685 0.03217389 -0.10890849 -0.102941796
-0.0611491 -0.053634636 0.027040554 -0.20450827 -0.018825773 -0.11061883 0.003192216 -0.16100706
-0.06761974 -0.05695714 0.047030006 -0.006098189 -0.23247351 -0.05979551 -0.033804093 0.00995087
0.034026984 -0.11288835 -0.13048786 0.046492845 0.12363114 0.01652365 -0.20132414 -0.0071732723
-0.12564746 0.04320916 0.04507234 0.15374207 -0.053476162 -0.087871894 -0.009396483 -0.028916731
-0.16881822 0.12195593 0.06738945 -0.013915779 -0.053880367 0.14713009 0.1266498 -0.07439088
-0.13915291 -0.17661543 0.15602238 -0.059839733 0.11187797 -0.19301216 -0.103143536 0.21879043
0.16295369 0.09106974 0.047629654 0.09435012 0.10907804 -0.07310094 -0.009847063 0.028872453
0.1017358 -0.05719938 0.019189086 0.15162224 -0.05358765 0.17718095 0.004804086 0.118082605
0.014155728 0.0057148566 -0.136984 0.05568684 -0.01386423 -0.02590618 -0.14725822 -0.007867558
0.020177966 0.1138534 0.03870254 0.068136826 0.14713615 -0.018820789 -0.0098204 0.054860294
-0.19735213 0.05550742 -0.14605695 0.19046362 -0.18132536 0.080755875 -0.11104479 0.027904049
-0.07033432 0.11121918 0.02238564 -0.22614983 -0.014237201 0.10908461 -0.0840725 0.17065668
-0.0729373 0.20268287 0.19686049 -0.06260135 -0.066719644 0.0436074 -0.028846448 0.08574299
-0.08963858 0.0021205072 0.033437178 -0.0605791 -0.15637827 0.003628195 -0.03652106 0.056823924
0.007250143 0.22246534 0.04227666 0.26234904 0.14597891 0.13212177 0.018369464 0.06181655
-0.23538633 0.21786232 -0.08493595 -0.2938852 0.07894425 -0.34150726 -0.31982476 -0.00016479671
0.17352645 0.3284848 0.09506653 -0.07530378 0.11200359 0.04300203 -0.17522691 0.061709333
0.000676659 0.18931592 -0.16065757 -0.14543197 -0.2265323 -0.20758948 -0.06010502 0.19735047
0.080290124 -0.058700383 -0.13053352 0.091613874 -0.108452514 -0.0098117795 0.03528562 0.25449702
0.02071405 0.11241758 0.041143116 0.025337167 0.17729884 -0.0895334 -0.11796532 -0.15596926
-0.016019275 -0.18172252 -0.19196805 0.17002062 0.0442359 -0.027212976 -0.1308993 -0.12608485
0.07797567 0.22003865 -0.00064694 -0.017219245 0.074751176 0.18158124 -0.0016006036 -0.2040719

net.2.bias f4 [32]
00000000: 3945 123e f1de 45bd 6afb 07bb ad12 173e
00000010: 4803 333e d2d9 aa3d 3cab 8bbc c801 023e
00000020: 7b34 3d3e 873f fa3d d560 1e3e 5b63 913b
00000030: 4efb 43bc 86cd 23be 045e b5bd 3026 faba
00000040: bfc4 423e ece7 a43d cf1a 1fbd 088d 85bd
00000050: 8653 083e e1bf 383e 491d 50bd cd89 2abe
00000060: 4eef c23d 8cc5 bd3c e3e7 fb3c bf0c 63bd
00000070: 6e0e a03d 2c6a 813d f3aa 1fbe 3493 24bd
0.14284219 -0.048308317 -0.002074922 0.14753218 0.1748172 0.08342327 -0.017049424 0.12695992
0.18477051 0.12219148 0.15466626 0.004436893 -0.011961771 -0.1599637 -0.08855823 -0.0019084867
0.19020365 0.08052048 -0.038843926 -0.0652104 0.13313112 0.18041946 -0.05080918 -0.1665413
0.095183 0.023165487 0.03075022 -0.055432077 0.07815252 0.06319079 -0.15592556 -0.040179446

net.4.weight f4 [32, 32]
00000000: ac64 21bc f9e6 e0bd f9dc 52be 04b0 643d
00000010: 2898 67bd 76e3 343e a4c1 9e3e 4a6c d5bc
00000020: 77aa 12be e873 ce3d 4941 15be 1d2e 803c
00000030: 2932 1ebe 9331 943e 9ea3 a13d 3a93 31be
00000040: 279f 603d 97d5 f0bc 2fb1 61bc d0dc 373d
00000050: aa95 cf3d 619a 43bd 01f5 15bd 330b 413e
00000060: a763 803d 0a77 443e d157 543e c988 edbb
00000070: 1eb6 373e b94e 5dbe 06d7 163d 5654 933d
00000080: fd79 9fbd 10d1 68be cef6 fbbd 7ee8 d63d
00000090: c8de 58be 1ce9 4f3d 43f9 873e 3d6d d33d
000000a0: 493e 8cbc 0346 a23e bf50 5abc 693e f2bc
000000b0: 5a23 e2bd c45f 7c3e fe63 17be 7bc6 cdbd
000000c0: 52c5 00be 690c f1bd b911 2b3d abd3 3cbc
000000d0: 79eb e3bc 1bce c43d 962f 14b8 65b6 9dbd
000000e0: e882 53bd 5f02 663e e0ef 28bd 2dc6 a3bc
000000f0: f0dc 083e e550 633d 0110 683e 91a9 e1bd
00000100: 1130 bcbc 481d 613d 9055 24bc 6741 87bc
00000110: 9b5f 053d 1a0e c4bd 82c8 e8bd 744b 01be
00000120: f5a7 f33d 5d6b 4abe 40c6 053d 07e3 ddbd
00000130: 3951 a83d 1fc4 c0bc 83f6 573e c1ff 2e3e
00000140: 4595 593e cfdf dcbd 3d76 d6bd 9068 e53d
00000150: c66a 303d 173c acbd f67e 1a3d f4da b4bd
00000160: ea81 413d 076a b9be 57ca 17be 6a24 94bd
00000170: c865 33be 4261 aebd c9ce 2cbe ea0b 463d
00000180: 669a 993b 7247 14be 9f87 b03d 5a2d 413e
00000190: 09b0 983d b35f 4bbc 6b10 10be dc0e 81bd
000001a0: 3df4 1c3e 9163 aebd cf67 38be 62cb 873d
000001b0: 2bc4 04be f678 72bd 176a ee3d c375 26be
000001c0: 1218 0e3d 5b9c 283e 6a1d a5bd 921a a93d
000001d0: 70ae af3d 3b3f 223e 0786 d73d d914 d0ba
000001e0: e96e 14be 7869 92be a1ee f93d 8c5e bc3d
000001f0: 7c14 69bd 5e10 0cbe 6ecb a4bd c76f 9a3d
00000200: c3df ae3d 5cd0 b6bd 8074 aebd 4e28 45be
00000210: 4f8c 2cbe 67a9 943c 6b14 713d 5314 1e3e
00000220: 411e 883d f88f 203e 48dc 183e 4ee5 2bbc
00000230: 068d e83d e11c 633e 351d 843b 0666 a3bc
00000240: 9e7a 7ebe d007 c43d b1a3 c83d 5b14 1fbe
00000250: fa49 813d a946 c93d 65eb e73c db1b 24bd
00000260: 4bb5 2abe 0c40 4e3e 3a7f c1bd 9f07 27be
00000270: 1d54 13bd 036e 25be 135c 2e3e 8b74 02be
00000280: 24bb 103e 7261 0bbc 4681 f8bc 78f1 eebd
00000290: 7086 1dbe 03d2 00be 7a39 913e 8044 d43d
000002a0: 8719 05bd ebbd 9f3d 5f41 a33d 5575 4b3e
000002b0: 009f 44bd 1291 2b3e a666 11bc 308c 40bd
000002c0: 3e40 89be a98c 23be 0096 163e 1f8d 6bbd
000002d0: 49c6 32be 1e16 25bd 4d8b ca3d 1711 cbbc
000002e0: ee6f dbbd 3492 a63e 0d98 09be 79df 0a3b
000002f0: 5895 27be 9b71 c33d 4206 4c3e ae91 edbb
00000300: e599 0fbd f0c5 46bd a087 fc3d faca bc3d
00000310: 650d 2dbe bb7f 273b 27a3 523e 8071 6a3e
00000320: 1472 23bd 48d8 b0bd 79ec 303e 7a05 0e3c
00000330: ec0c 4d3d 4067 3e3e 0ec0 00be bd3a c63d
00000340: b88a 37bd 8b2a 5b3d 44e6 92bc 3100 163e
00000350: 3201 913d 101d 103e 5867 afbc c553 953d
00000360: f04b 233e f669 a53e 5b79 373e 10c2 d2bd
00000370: 419c 0e3e 8bd6 943c 68a1 1cbd 9766 8b3c
00000380: 4bd7 73bd a97c 0cbe bb4a 67bd 9bd6 91bd
00000390: 6bd4 1cbe 798f 85bd 0903 a23e e43a 80be
000003a0: c9a2 bbbc 7d0e febd 9ee7 07be b5f0 b6bc
000003b0: 71f1 86bc 9c34 43bd 1dc8 403e 0bd8 79bc
000003c0: 90d3 ab3e 3296 71bd 4e86 89bc 04d1 d2bd
000003d0: 3a56 933e 0bcc 113e d2d9 133d a464 2d3d
000003e0: 08cc 36be 7a21 fcbd ce7e acbc 1f12 8c3c
000003f0: 872d cebd 6b28 653d 6010 923d a58c 3d3e
-0.009850662 -0.109815545 -0.20592107 0.055831924 -0.056541592 0.17664894 0.3100711 -0.026052613
-0.1432284 0.10080701 -0.14575686 0.015646989 -0.15448822 0.28944072 0.078925356 -0.17341319
0.05483928 -0.029398723 -0.013775154 0.044888318 0.10135968 -0.04775465 -0.036610607 0.18851928
0.06269007 0.19186035 0.20736624 -0.007248972 0.17940566 -0.21612062 0.036826156 0.0719382
-0.07786939 -0.22736001 -0.12302934 0.10493563 -0.21178734 0.05075942 0.2655736 0.1032357
-0.017119544 0.3169404 -0.013324915 -0.029570775 -0.11041899 0.24645907 -0.14784238 -0.10047623
-0.12575272 -0.11769945 0.04176495 -0.011525075 -0.027822243 0.09609624 -3.5330268e-05 -0.077008046
-0.051638514 0.22461842 -0.041244388 -0.019991959 0.13365531 0.05549707 0.22662355 -0.1101867
-0.022972139 0.054959565 -0.010030165 -0.016510678 0.03256188 -0.09573002 -0.11366369 -0.1262644
0.1189727 -0.19767518 0.03265977 -0.10834318 0.08218617 -0.023531018 0.2109013 0.1708975
0.21248348 -0.107848756 -0.10471771 0.11201584 0.043070577 -0.08409899 0.037718736 -0.088308245
0.047243036 -0.36213705 -0.1482328 -0.07233508 -0.17519295 -0.08514644 -0.16875757 0.048351206
0.004687595 -0.14480379 0.08619618 0.18864956 0.07455451 -0.012412953 -0.14068763 -0.06301662
0.15327545 -0.085150845 -0.1800835 0.06630589 -0.12965457 -0.05919739 0.11641329 -0.1625586
0.034690924 0.16465895 -0.08062251 0.08257021 0.08578193 0.15844433 0.105236106 -0.0015875354
-0.14495434 -0.2859609 0.12203718 0.09197721 -0.0569043 -0.13678119 -0.08046614 0.07540851
0.08538773 -0.0892646 -0.08518314 -0.19253656 -0.16850398 0.018147184 0.058857363 0.1543744
0.066463955 0.1567992 0.1492778 -0.010491682 0.11355023 0.22178985 0.004031802 -0.01994611
-0.24851462 0.095718026 0.09796847 -0.15535109 0.06312938 0.098279305 0.028310487 -0.040065628
-0.1667072 0.2014162 -0.09448095 -0.16311501 -0.03596889 -0.16155247 0.17027311 -0.1273977
0.14133888 -0.0085071195 -0.03033508 -0.1166715 -0.15383315 -0.12580113 0.28364164 0.10364628
-0.032495048 0.07799896 0.07971453 0.19868977 -0.048003197 0.16754559 -0.008874571 -0.047008693
-0.26806825 -0.15971626 0.14705658 -0.05750763 -0.17458452 -0.040304296 0.09889851 -0.024788423
-0.10714708 0.3253342 -0.13436909 0.002119033 -0.16365564 0.09543153 0.19924262 -0.0072500324
-0.035058875 -0.04852861 0.12330556 0.09218402 -0.16899641 0.002555831 0.2057005 0.2289486
-0.039903715 -0.086350024 0.17277707 0.008668298 0.05006115 0.18594074 -0.12573263 0.09679172
-0.044810027 0.05350737 -0.017932065 0.1464851 0.07080306 0.14073586 -0.021411583 0.072913684
0.15946937 0.32307404 0.17917387 -0.10290921 0.13926794 0.018168708 -0.038239866 0.017016692
-0.05953149 -0.13719429 -0.056467753 -0.07121011 -0.15315406 -0.06521506 0.3164294 -0.2504493
-0.02290477 -0.12405107 -0.13271949 -0.022331575 -0.01647255 -0.047657594 0.18826337 -0.015249263
0.33559847 -0.058981128 -0.016787674 -0.10293773 0.28776723 0.14237992 0.0360964 0.042332307
-0.17851269 -0.12311073 -0.021056559 0.017098485 -0.100672774 0.05594675 0.071320295 0.18510683

net.4.bias f4 [32]
00000000: 0c2f e1bd 040c 48bd 9ddd d5bd 5710 143e
00000010: 970d 4abc e458 0a3d f03b 24be 0839 ddbd
00000020: 47ad 8b3d 3a03 bbbc 9bb3 343d e908 fd3c
00000030: af93 b2bd 5e23 dabd 1676 8e3d 2d80 fb3d
00000040: d6c7 8bbd ce54 c73d d8d2 f43d fd4c 023e
00000050: 018a e2bb c489 01be a56b 29be c48d 173e
00000060: 69e9 213b 9305 343b 8b90 013e 66fc ac3d
00000070: d075 8fbd 9f22 123c e720 dcbd 8957 f03d
-0.109953016 -0.048839584 -0.1044266 0.14459358 -0.012332342 0.03377618 -0.1603849 -0.108018935
0.068201594 -0.022828687 0.044116598 0.030888038 -0.08719575 -0.10651277 0.06956117 0.12280307
-0.06825225 0.09732972 0.11954278 0.12724681 -0.006913424 -0.1265021 -0.1654497 0.14800173
0.0024705774 0.0027469143 0.12652795 0.08446579 -0.07004893 0.008919387 -0.10748463 0.11735446

net.6.weight f4 [32, 32]
00000000: 140f 3f3e bfda dbbc 4d59 153e 52dc c8bc
00000010: 5f69 ec3d 7f59 383e 74f2 343d cc9c 6ebd
00000020: ef1b 48bc 1111 893d 7078 ef3d 9732 9bbd
00000030: 11e0 bc3a 6d7d fbbd 592b b9bd 0ac9 b7bd
00000040: a8e1 883a ab8d e6bd e8d4 45be c0dd 3a3e
00000050: b0a4 5cbd 66af 4a3c 7cb6 b73d 1035 99bd
00000060: 16cf 5b3d 19d6 b23d d7e3 393e 57be 023d
00000070: e00c 72bc 2753 033e 3deb 89bc 68c0 22be
00000080: 5364 60bd d8c6 96bd 1526 5dbc 922c 06bd
00000090: 95b7 1dbe 1aa3 25be 49ce 6bbe b134 dabd
000000a0: 2aeb f3bd 9bfd 783d a771 d8bd b646 693e
000000b0: 28a5 48bc 786b 243e 6269 5a3e 33b2 dd3d
000000c0: 52fe ab3b 8550 3f3e 48a3 c1bd 6870 803d
000000d0: 876a 4fbd 7d64 36bd eee0 44be ea9c de3c
000000e0: cc84 8dbd 5ecd cdbd a53f 49be 5e17 113e
000000f0: 8c2f 0f3e 84e8 63bd 4d6c d3bd b23b 633e
00000100: 1c5f 2d3c 7d1f 81be 839f 8e3c 8c9b 0bbe
00000110: 8daf 91bd b47e fbbe 582c 2bbe 179e ab3d
00000120: 24f8 8e3d 21b6 ffbd fdec 153e 264a 823d
00000130: 55ef 0b3e b61b 7d3d 6b7c ccbc fd3f 613d
00000140: 6e11 393e c8db 34bd 78ab 0ebc 4d6b ba3d
00000150: 314a 7ebc 37f1 4f3d 4f3f fabd 628f 8ebd
00000160: e983 3d3d 610f 16be 95ff cd3c 7b48 133e
00000170: 3d9c 903d 3d4d 00be 9430 78bc d63f 4f3e
00000180: 6d04 19bc ce23 f33a 3f33 04be 7923 a0bd
00000190: 878b 02be 1d3c 6fbe f848 853d c4db b83d
000001a0: 953b 083e 071e 173d 2cf8 b13d b64b 333d
000001b0: 04e5 013d f4ca c03d 7479 233e 6144 0cbd
000001c0: 390d 1e3e ed6c ebbc 41b0 3d3e deca 5fbd
000001d0: 9240 8c3e f5f1 11be f70d e6bd 92fb 973c
000001e0: 7118 573d a8d0 6d3d 5b3f cabd ea74 35be
000001f0: 20ac 8e3d 6fd6 0abe 931f 133e 46f6 5f3d
00000200: cb20 8bbc 046f d03d f322 3bbd 2c4a 27be
00000210: b74f 053d e941 a83e a3a7 f53d bd94 353e
00000220: efd8 fb3d 04ad d63d e0c6 12be db70 3ebb
00000230: 37ed aa3d d876 ea3d 3c0f 853c ca07 bf3d
00000240: 1163 fe3d f941 26bd 522a d93c 34b7 cfbd
00000250: e6d0 f0bd 5a93 163e fcb5 843d 84ff 69bd
00000260: 337d 43bd 3781 1f3e 9625 bf3d 8479 123e
00000270: 77b5 ed3d 5b7c cd3d 0543 023e b455 253d
00000280: fa12 103d 0390 51be 3446 2d3e 389e 533e
00000290: 6219 2dbe 825d 0abe 66d6 d83c 2104 0fbe
000002a0: 38d6 b9bc 932d afbd f21d 42bd a67f aa3e
000002b0: bb1d 90bd d92c 553e a1fe 133e a8ee 013e
000002c0: 0699 a8bd 46a1 4cbd 906e 903d 23a3 0fbe
000002d0: 4bf1 e43c 1974 ab3d 3a33 1ebe 8063 e2bd
000002e0: a42d 0a3e 0576 083e cdc1 043d 9143 ce3c
000002f0: 201c 18be e306 563e a43d dabc 93db 0c3e
00000300: d5c2 2b3e 3b0e 873e 1df6 89bd 573d afbd
00000310: 9930 c73d cb36 893e e9b4 403d 298f a83d
00000320: 2202 ffbd 7770 573d bf48 e3bd 60fa a9bd
00000330: a5c9 7dbc a6eb ecbc 46bc 96bd a35d 43be
00000340: ffbf 233c 950e 91bc 446f 72bc a1c7 cb3d
00000350: 4a84 603c d18c 21be 71b7 183d 00f4 133e
00000360: 206c 1a3e 521b fa3c 4d4d 463e 3287 e4bc
00000370: 99f6 82bc bbfc 24be 7b80 b23d 62da 54bd
00000380: e55e 8d3d 6bee 89be 31e7 3c3d bdd0 843d
00000390: 8c25 9c3d 113f 333c 41ec 6dbe cbca 633d
000003a0: 38f2 b9bc 05f9 213d 61c3 b7bd 9883 923e
000003b0: bf43 f3bd f92d d63b 46fe 3e3e 339f 833e
000003c0: 9d0d e53d 2724 29be b787 ef3d 5109 10bd
000003d0: cbab 143e b49b 2cbe 8b16 09be 8770 243d
000003e0: 0078 3b3e f010 1a3e 389c 003d 8b03 373d
000003f0: 0175 d5bd 46dd b13c 415e 9bbe 07d6 543e
0.18658096 -0.026837705 0.14584847 -0.02451912 0.115435354 0.1800289 0.044176534 -0.058255002
-0.012213691 0.06692708 0.116928935 -0.075780086 0.0014410039 -0.122797824 -0.09041471 -0.08973892
0.0010443227 -0.1125749 -0.19319499 0.18248653 -0.053867996 0.01237092 0.08970353 -0.07480824
0.05366429 0.08732242 0.1815332 0.031919803 -0.014773577 0.12824689 -0.016835803 -0.1589371
-0.054783177 -0.07362145 -0.013497849 -0.03275735 -0.15402062 -0.161755 -0.2302791 -0.10654581
-0.11910088 0.060788732 -0.105685525 0.2278088 -0.012246408 0.16056621 0.21329263 0.108250044
0.005248823 0.1868306 -0.094549716 0.0627144 -0.0506387 -0.044529427 -0.19226429 0.027174432
-0.069100946 -0.10048936 -0.19653185 0.1416907 0.13982981 -0.055641666 -0.10323391 0.2219074
0.010581758 -0.25219336 0.017410045 -0.13633555 -0.07113562 -0.49120104 -0.16716135 0.083797626
0.06980923 -0.1248591 0.14641185 0.06361799 0.13665517 0.061794005 -0.02496167 0.054992665
0.18073055 -0.044154912 -0.0087078735 0.09102497 -0.015520618 0.05076715 -0.122191064 -0.06960942
0.046268377 -0.14654304 0.025146285 0.14383118 0.0706105 -0.12529464 -0.015148301 0.20239195
-0.009339434 0.0018550099 -0.12910174 -0.07819266 -0.12748538 -0.23362775 0.06508058 0.09026292
0.13303979 0.03689387 0.08689913 0.043773375 0.031712547 0.0941371 0.159643 -0.0342449
0.15434732 -0.028738463 0.18524267 -0.05463683 0.27393013 -0.14252456 -0.11233132 0.018552575
0.052513544 0.05806032 -0.09875365 -0.1772038 0.06966424 -0.13558362 0.14367513 0.054678224
-0.01698341 0.101774246 -0.045687627 -0.16336888 0.032546725 0.32862785 0.11994865 0.1773252
0.12297236 0.10482219 -0.14333677 -0.0029058966 0.083460264 0.11448449 0.016242616 0.093276575
0.12421239 -0.04059026 0.026509438 -0.10142365 -0.11758594 0.14704648 0.06480023 -0.057128444
-0.04772682 0.15576635 0.09333341 0.14304167 0.11606877 0.100334845 0.12720878 0.040364936
0.035174347 -0.20465092 0.16921312 0.20665824 -0.16904214 -0.13512233 0.02646942 -0.13966419
-0.022685155 -0.085536145 -0.04739184 0.33300513 -0.07036921 0.2081789 0.14452602 0.12688696
-0.08232312 -0.04995849 0.07052338 -0.14027075 0.027947089 0.08371753 -0.15449229 -0.11054134
0.13493973 0.13326271 0.032411385 0.025178703 -0.14854479 0.20901065 -0.02664072 0.13755636
0.16773541 0.26378044 -0.067363955 -0.085566215 0.09726066 0.26799616 0.04704753 0.08230431
-0.12451579 0.05259749 -0.110978596 -0.08299708 -0.01548997 -0.02892096 -0.07360129 -0.19078688
0.009994506 -0.017707149 -0.014797036 0.099501856 0.013703415 -0.15776373 0.03728432 0.14448547
0.15080309 0.030530605 0.19365425 -0.027896497 -0.015986728 -0.16112034 0.08715912 -0.05196608
0.06902865 -0.2693971 0.04611892 0.06485126 0.07624349 0.010940329 -0.23234655 0.05561332
-0.022698507 0.039544124 -0.089728124 0.28616023 -0.11878156 0.006536242 0.18651685 0.25707397
0.11184237 -0.16517697 0.116958074 -0.035165135 0.14518659 -0.16856271 -0.13387506 0.040146377
0.18307495 0.15045524 0.03139898 0.044681113 -0.10422707 0.021711957 -0.30345348 0.2078477

net.6.bias f4 [32]
00000000: b4f0 68bc d4af 203c 51b7 1e3e 0ef2 833d
00000010: bf1b a3bd 1bb4 d5bd 04b1 5b3d ab40 143e
00000020: 1eef 87bc e3a0 f7bd 10e2 7bbd a687 933d
00000030: d8a9 ea3d 222c 4cbc 6232 bebd 71fe 373e
00000040: d9b0 c7bd 1bc0 633d 5c7e 1bbe f018 153e
00000050: a521 2a3e 9e01 d93d de6f 29be a99a 2b3e
00000060: 7e19 313d 4b7b d03c c729 b8bd cb67 6dbc
00000070: ef44 94bd f13c 1fbe 0542 f0bc 82aa 45bd
-0.014217544 0.009807546 0.15499617 0.06442653 -0.079642765 -0.10434743 0.053635612 0.14477794
-0.016593512 -0.120912336 -0.061494887 0.07203607 0.114581764 -0.012461694 -0.092869535 0.17968155
-0.09750528 0.055603128 -0.15184921 0.14560294 0.16614397 0.105960116 -0.1654658 0.16758217
0.043237202 0.025449416 -0.089923434 -0.014490078 -0.072397105 -0.15550591 -0.029328356 -0.048258312

net.8.weight f4 [1, 32]
00000000: 703a bc3d 3918 37be 4be0 08bd a6a6 afbd
00000010: d177 843d 4b1a 40bd c695 3c3e fd06 ebbd
00000020: b6a0 d7bd 4943 563e d13c 5abe 9c3a fc3d
00000030: 5f4d df3d 5372 19be aec9 ebbd 72db 3dbe
00000040: 1b28 41be 2fc6 19be b066 553e 0611 073e
00000050: 2f73 293e 37d6 c5bd 5dbc b03d 97ec d63d
00000060: 21b2 103e 488a 3cbe 5929 693d ff49 1b3e
00000070: 94d8 7e3e b0ee e03d 522f 11be 5adf af3d
0.091908336 -0.17880334 -0.033417027 -0.085767075 0.06468166 -0.046900075 0.18416509 -0.11475942
-0.105287 0.20924105 -0.21312262 0.12315866 0.10903429 -0.14985017 -0.11513077 -0.18540743
-0.18862955 -0.15017007 0.20839953 0.13190088 0.16547845 -0.09659999 0.086296774 0.10494345
0.14130451 -0.18412125 0.056924198 0.15164946 0.24887305 0.10983026 -0.14178208 0.08587523
