models/model.pth (torch, 16071 bytes, 9 tensors)

net.0.weight f4 [32, 2]
000000 e8 5e 96 be 81 01 30 3e 37 cb 0d 3f 93 d6 14 be
       -0.29369283 0.17188074 0.55388206 -0.14534979
000010 30 72 e6 be 2d b4 d9 3e 87 83 07 3e 3a c1 da bd
       -0.45008993 0.42520276 0.13233767 -0.10681386
000020 ea ed 1c 3d 8f 4a e7 be fd 10 8a be 56 ff 9a 3b
       0.03831283 -0.4517407 -0.26966086 0.0047301454
000030 42 09 10 be 59 3e 0e 3f e3 02 22 be 1d 26 f5 3e
       -0.14066032 0.55563885 -0.15821414 0.4788064
000040 8a ca 20 bf 22 af ee 3e 5c 31 2b be 60 e0 83 3e
       -0.6280905 0.4661799 -0.16718048 0.25757122
000050 c4 50 25 be 65 63 f6 be 46 8a c3 3d 99 22 1f 3e
       -0.16144091 -0.48122707 0.09547858 0.15540542
000060 cb b2 22 bf 08 a7 02 bf 10 d0 25 bd dd 09 27 bf
       -0.63554066 -0.5103612 -0.040481627 -0.65249425
000070 08 aa 1c 3f dd 98 fc 3d 2e 72 c4 be cf bc 05 bf
       0.6119695 0.12333844 -0.38368362 -0.52241224
000080 dc ea b3 3d 4c 66 a3 3c 3e de 77 be 3f cd 4c be
       0.0878503 0.01994624 -0.24205872 -0.2000017
000090 63 8b 80 be 97 20 04 bf cb 8c 04 bf ec 5c 84 3e
       -0.25106344 -0.5161223 -0.51777333 0.25852144
0000a0 db 6d 64 3e 73 ba 86 3e 13 a7 0e 3f d5 35 8f be
       0.22307532 0.26314124 0.55723685 -0.27970758
0000b0 99 5f 48 bd 1c e0 2e bf 62 80 23 be 39 f8 08 bf
       -0.048919294 -0.68310714 -0.15966943 -0.5350376
0000c0 ad f5 b2 3e 3c 5d f5 3e 76 e2 b6 be 97 61 b9 be
       0.3495306 0.47922695 -0.3571965 -0.36207268
0000d0 65 9f 28 bf 60 4f 15 bf ab ad 71 3e 14 ef 17 3f
       -0.65868217 -0.5832424 0.23601405 0.5934918
0000e0 be 8b 8c be e6 84 a0 3e 90 71 37 be 69 7f 12 bf
       -0.27450365 0.31351393 -0.17914414 -0.5722566
0000f0 89 d1 db be e5 ab 4b 3e d5 d6 6c bd be 2e 1f 3f
       -0.429333 0.19889791 -0.057822067 0.621807

net.0.bias f4 [32]
000000 65 18 0e bf 14 bd 3f be ac e8 1e 3e 1a b4 31 3f
       -0.55505973 -0.18724471 0.15518445 0.6941544
000010 47 d9 2b bf 50 00 5c be 20 25 29 3f 84 07 71 3e
       -0.67128414 -0.21484494 0.66072273 0.23538023
000020 1c 8d 9f be 73 2a 61 be 4c dc bd 3e 26 e2 f8 3e
       -0.31162345 -0.2198885 0.37082136 0.48610038
000030 f4 28 27 3d f0 e9 c1 be ac f9 12 bf 42 00 4f 3e
       0.04081054 -0.37873793 -0.5741222 0.20214942
000040 31 2f 3f bd 64 3f b7 be c7 1b 95 3d aa 73 12 3f
       -0.046675865 -0.3579055 0.07280689 0.5720774
000050 f2 21 03 3f 68 03 8a be c7 bf 0d bf 6d b7 35 bf
       0.5122367 -0.26955724 -0.55370754 -0.7098301
000060 2c dd cb be 7a 8d d4 be df 38 b9 3e 09 4a f7 bd
       -0.39817178 -0.41514188 0.36176202 -0.12074668
000070 89 2e ad 3e d7 57 19 bf e8 a6 0e 3f 42 7c 13 3f
       0.33824566 -0.5989966 0.5572343 0.5761148

net.2.weight f4 [32, 32]
000000 cd 68 c7 3d 3c 42 94 3d af 7b c1 3d 7f ad 29 be
       0.09736786 0.07239196 0.09447419 -0.1657009
000010 86 40 ef 3c 47 58 90 3d cc 1d fc 3d 2c 71 22 3e
       0.029205572 0.070480876 0.12310371 0.15863484
000020 f0 15 08 3d 54 db fe 3b 1a 6e f1 bd b0 d0 aa 3d
       0.033224046 0.007777611 -0.11788578 0.08340585
000030 28 46 9f 3d 49 30 2c be 22 30 9f 3a 7a cd c9 3d
       0.07777053 -0.16815294 0.0012145082 0.09853645
000040 da eb c6 bd a0 88 b6 bc 9c 70 e9 3b 8d 18 f5 3d
       -0.09712954 -0.022281945 0.00712402 0.11967573
000050 49 71 27 be 9e 65 aa 3d 7a 91 c6 bd 01 64 1b 3e
       -0.16351809 0.08320163 -0.09695716 0.15174867
000060 69 99 6b bd ce 8c c0 bc 8f ab 26 be 11 21 12 be
       -0.05751935 -0.02350464 -0.16276382 -0.14270426
000070 c4 99 34 3e b6 c8 ce 3b 8d 06 a3 3d 4a 62 13 3d
       0.17636782 0.0063105477 0.07960234 0.035982408
000080 1b 4b a1 bd ec f9 e8 3c 6a 4a a4 3d 1d 9a b5 bd
       -0.07875653 0.028439485 0.08022006 -0.088672854
000090 3b 29 45 3d 82 54 b0 bd 58 2f 1b 3e 1e ee c1 bc
       0.048135024 -0.086098686 0.15154779 -0.023673113
0000a0 5f c1 05 3c cd 59 d9 3b a3 09 29 3d 3f 9a 14 3b
       0.008163779 0.0066330195 0.041268956 0.0022674946
0000b0 4f a1 8b 3d 4e f9 51 3d 74 f3 46 be ba 10 0d bd
       0.068178765 0.051263146 -0.19428807 -0.03443978
0000c0 67 ee a1 3d e2 5a e2 bd 01 e8 f9 3d 66 ab cf 3c
       0.079068 -0.11052491 0.12202454 0.025350284
0000d0 d7 75 27 3e 6c 9e 74 be 3d 3c 30 be 74 de 02 3d
       0.16353546 -0.23888558 -0.17210479 0.03195043
0000e0 3f 15 09 bc 48 2c 44 bc 56 9c 01 3d 7a ed 49 bd
       -0.008366882 -0.011973448 0.031643234 -0.04929874
0000f0 74 a1 31 3e 7a 0e a0 3d ef 81 24 3e fd 9c 97 3d
       0.17346746 0.07815261 0.1606519 0.0740299
000100 ee 7f 99 3d 4d 28 0f bd 3c 21 70 bc 1b 0d 20 bd
       0.07495104 -0.034950543 -0.014656361 -0.039075
000110 17 0a db 3d 58 c9 37 be ec 0e 93 3d 92 43 a7 3c
       0.10695284 -0.179479 0.071805805 0.020417962
000120 2f 76 ee bd 6f 90 d6 3d b1 1c 7f bd 14 15 4a 3e
       -0.116436355 0.10476767 -0.06228322 0.19734603
000130 32 3e c6 bb 47 5d 5a be 00 2e a3 bd c1 a4 39 bc
       -0.0060498947 -0.21324645 -0.07967758 -0.011330784
000140 ac 9e 83 3c 8e 76 4a bd 09 48 1e be 23 93 89 bc
       0.016066872 -0.04942947 -0.15457167 -0.016793793
000150 9f 02 8a 3d 9a a8 2e 3e 0e 32 8f bc 2f a4 1d bc
       0.06738781 0.17056504 -0.017479923 -0.009621664
000160 0c 49 43 be db 79 2d bd 1f 7a 07 3e 12 83 df 3d
       -0.19070834 -0.04235254 0.13230179 0.109136716
000170 77 34 7a bd 08 c4 53 be 65 3c 09 be c6 c2 5c 3e
       -0.06108519 -0.20680249 -0.13401945 0.21558675
000180 86 2e 1b be a2 26 37 3d 42 77 a4 3d 99 7b 22 3e
       -0.15154466 0.044714577 0.08030559 0.15867461
000190 af 33 91 3b d8 17 38 3e 0a aa 12 be c6 86 30 3d
       0.00443121 0.17977846 -0.14322677 0.04309728
0001a0 c4 8a 8b 3c 9a d7 00 3d 02 2f 5c 3c d3 88 59 3d
       0.017033942 0.031455614 0.013438942 0.053109
0001b0 05 ca b7 3c 7d 16 9f bd 2d 0a 52 be 1e 92 e0 bc
       0.022435198 -0.07767961 -0.20511694 -0.027413424
0001c0 f7 ac 09 be 6c e6 c2 3d 59 fc b3 3d d0 09 d8 3d
       -0.13444887 0.09516606 0.08788366 0.105487466
0001d0 8d 9c 0a 3e d0 87 7e be 71 1c 00 3e f3 7a de 3d
       0.13536282 -0.24856496 0.1251085 0.108632945
0001e0 ea 7a 68 be 66 cc 6d bd 23 38 01 3d fa cd 98 3d
       -0.22703138 -0.058056258 0.031547677 0.07461162
0001f0 e0 f5 b4 3d 25 37 a0 bb e6 6f 8c 3e d4 3d de 3c
       0.088359594 -0.0048893862 0.27429122 0.027129091
000200 8c b4 40 3e 6b 94 0c 3e 0a 12 56 be a8 ed 0a be
       0.18818873 0.13728492 -0.20905319 -0.13567221
000210 ae bc 93 3c 1a 10 9d 3d e2 99 aa bd 77 c0 9b 3d
       0.018034305 0.07669087 -0.08330132 0.07605069
000220 7f 88 bd 3d 1b 66 2d 3d 9f c2 a6 3b 98 41 22 3c
       0.0925455 0.042333703 0.0050891186 0.009903334
000230 62 da 0b be 4a e6 00 be a5 0b 0c 3c a4 ff e9 3d
       -0.13657525 -0.12587848 0.008547698 0.11425713
000240 e6 89 eb bc dd 6d 14 be 10 55 ff bd f6 0f 48 be
       -0.028752279 -0.14495035 -0.12467396 -0.19537339
000250 5b 76 6c bd a2 32 2a 3e 23 71 99 3d e0 dc 97 3d
       -0.05773006 0.16620877 0.07492282 0.074151754
000260 3b 24 2e 3e c5 95 59 3d bb 1b 0f 3e f8 67 88 bd
       0.17006008 0.053121347 0.13975422 -0.066604555
000270 09 cc 38 be b5 37 15 be b5 76 d7 bc fe 3c 2a bd
       -0.18046583 -0.14572032 -0.026301721 -0.041562073
000280 7c 3e 08 bd 8e e9 e0 3d bc ca 14 be fe 89 91 bd
       -0.033262715 0.10982047 -0.14530462 -0.07106398
000290 27 81 dd 3c 30 0a 4f be da 9f a8 bd 94 52 82 bc
       0.027039124 -0.2021873 -0.08233614 -0.015908517
0002a0 0a f9 75 3b 65 5a d6 3d 34 4b 46 be f6 8d a7 bc
       0.0037532472 0.1046646 -0.19364625 -0.020453434
0002b0 b6 42 14 3d c8 52 de bc b9 18 bd bd 11 80 18 3e
       0.036196433 -0.027139083 -0.09233231 0.14892603
0002c0 04 07 cd 3d a9 4e 0d 3e c8 05 69 bd 3f 68 f3 bd
       0.10011104 0.13799538 -0.05689028 -0.11885118
0002d0 bd 1d 9c 3d 5d 7a 7f 3e 7b 4e 54 3e 2b 6b fb 3d
       0.076228596 0.24949022 0.20733063 0.122763
0002e0 23 20 ef 3d 38 ad 0b 3e ac de 87 3d 52 1c 4f bd
       0.116760515 0.13640296 0.06634268 -0.050564118
0002f0 e9 10 46 be 48 c6 99 bd af 1f 0e be 63 bc 8d bd
       -0.19342388 -0.07508522 -0.13879274 -0.069206975
000300 91 59 14 3e 55 c3 a8 3d 44 6f 82 3d 8c 83 3b 3e
       0.14487292 0.08240382 0.063688785 0.183119
000310 05 a7 bd 3d 28 c8 1a 3e 02 2a a4 3c 7d c6 35 bd
       0.09260372 0.15115416 0.020039562 -0.044378746
000320 6a 4d 65 3c 08 1c 04 bd 36 e9 99 3d 1a c1 d7 bd
       0.013995508 -0.032253295 0.075151846 -0.10534878
000330 d7 ec 0a 3e 34 d2 20 3e f1 3d bd 38 2e c1 f0 bb
       0.1356691 0.15705186 9.02376e-05 -0.0073472476
000340 9b 77 93 bc ee ab cf 3d db e4 96 3d 55 2a 02 bd
       -0.018001368 0.10140215 0.073678695 -0.031778652
000350 09 d5 7e 3b d0 8c 3a 3e 7c 62 37 3e f8 4b a6 bd
       0.0038884303 0.18217778 0.17908663 -0.08119959
000360 8e 56 37 be 2c b3 37 be 7a da 4e bd 0d ea 2a bd
       -0.17904112 -0.17939442 -0.050501324 -0.041727114
000370 62 ee 72 bd 2a 5e be bc 20 99 32 be 53 49 ec 3d
       -0.05930937 -0.02323826 -0.17441225 0.11537423
000380 d6 23 07 3d 43 9e 8c 3d 18 1e e7 3d a2 ca a9 3d
       0.03299316 0.068661235 0.11285037 0.08290602
000390 46 96 d9 bd c6 23 53 3b e2 7a 1e bc e0 3f 15 3e
       -0.106243655 0.0032217368 -0.009672852 0.14575148
0003a0 28 df b4 bd 54 8c 0c 3e 37 1c ad 3d 95 7e c5 bd
       -0.08831626 0.13725406 0.08452647 -0.09643284
0003b0 f7 47 c6 3d d8 09 8b bc cf 51 ab bd c9 50 aa bd
       0.09681695 -0.016972467 -0.08365213 -0.0831619
0003c0 44 76 79 bd bd dd 07 be 13 72 c1 3d 1b 33 cd 3d
       -0.060903803 -0.1326818 0.09445586 0.10019513
0003d0 51 4e 52 3d 8f 16 4c be d4 93 3b bd 0e 8e 9a bd
       0.05134422 -0.1993048 -0.045795277 -0.07546626
0003e0 41 b9 08 3d c2 60 27 bd 4f 7d 08 be c9 9c e1 bd
       0.033379797 -0.04086376 -0.13329051 -0.110162325
0003f0 c8 d4 bf bd e0 b0 03 3e 5f a3 49 3e b9 13 5a 3d
       -0.09366757 0.12860441 0.19691227 0.053241465

net.2.bias f4 [32]
000000 73 2b 10 3e 5b f3 fd bc ef ba bd bd 15 61 73 3e
       0.14079075 -0.03099983 -0.092641704 0.23767503
000010 e1 14 36 be 98 5b 8a 3c b5 19 d9 bd fa 84 11 3e
       -0.17781402 0.016889378 -0.10600606 0.14210883
000020 52 bc f3 3b 02 c0 02 3e cb e2 ba bd 6e 34 89 3c
       0.007438221 0.12768558 -0.091252886 0.016748633
000030 99 6d 27 3e 7d 24 24 be 47 84 55 3e a8 02 e9 3d
       0.16350402 -0.16029544 0.20851241 0.1137746
000040 15 ae 3b 3e 9a ce 0a 3d 90 03 5d 3d 76 72 86 3d
       0.18328126 0.033888437 0.053958476 0.065648004
000050 5d 23 49 3c 72 6d d2 bc d8 bb 06 bd da 78 fe bb
       0.012276498 -0.025686953 -0.032893986 -0.0077658715
000060 8c 19 e3 bb 60 85 a4 3d 69 1d ad bd 26 b9 52 be
       -0.0069305357 0.08033252 -0.08452875 -0.20578441
000070 46 cf d0 3d b5 a7 4c 3e 19 fa 0f 3c f8 96 a7 bd
       0.10195784 0.1998585 0.008787655 -0.08183092

net.4.weight f4 [32, 32]
000000 d1 7d 33 3c 09 cf c0 3d 46 13 87 bd f0 8a 62 be
       0.01095529 0.09414489 -0.06595473 -0.22123313
000010 53 aa 8b bd 99 14 0f ba 2f ff f3 bc 29 34 52 be
       -0.06819596 -0.00054580864 -0.029784767 -0.2052771
000020 a8 7c 3d bd f4 09 02 3e f5 d6 f0 3d 0b ae b4 ba
       -0.04626146 0.1269911 0.1175975 -0.0013784779
000030 9d 7f bd bd a5 d5 9e bd 42 d3 18 3e c0 c2 11 be
       -0.09252856 -0.07755593 0.14924338 -0.14234447
000040 89 df 1e be c0 f0 1f be e5 a9 3a 3d 3a d9 03 3d
       -0.1551496 -0.15619183 0.04557218 0.032189585
000050 81 1a 07 3e bc d0 d0 bb 4e 12 2e 3e b8 37 10 bd
       0.13193704 -0.0063725393 0.1699917 -0.035209388
000060 83 f5 05 be 0c 52 da bd 9a 21 56 bd 21 48 4d 3e
       -0.13081937 -0.106601804 -0.05227814 0.20047046
000070 61 8e 12 3e 57 6d 6f be 7a 50 02 be b9 a8 3c 3e
       0.14312126 -0.23381554 -0.12726012 0.18423738
000080 2b aa 61 3e 18 60 21 3e 96 0b ba 3b 95 e1 1b bd
       0.2203757 0.15759313 0.0056776507 -0.03805693
000090 5a 6e 4a be 52 42 88 be 8f 63 f8 bd 60 d9 59 3e
       -0.19768658 -0.26613098 -0.12128364 0.21274328
0000a0 9c 0c c3 bd bb 88 29 be e5 e0 4e 3a f9 4e 8c 3d
       -0.095238894 -0.16556065 0.0007891788 0.06851
0000b0 c7 63 0e 3e 18 b1 5a be 5c 63 fb 3d 85 8c d7 3d
       0.1390525 -0.21356618 0.12274811 0.10524849
0000c0 27 aa 73 3d e8 c9 90 bc 06 0a db 3d 49 80 34 3e
       0.05948844 -0.017674401 0.10695271 0.17627062
0000d0 b9 b4 7f 3e 95 75 d2 3d 2c 30 d3 3c 19 c1 4f be
       0.24971284 0.10276333 0.025779806 -0.20288505
0000e0 24 1c 55 3e 69 94 a0 3d 96 8d 63 3e 93 f8 f7 bc
       0.20811516 0.07840807 0.2222198 -0.030269897
0000f0 22 51 92 3c 55 b3 08 3e c3 16 de 3d 40 16 50 3d
       0.017860953 0.1334966 0.10844185 0.05080247
000100 bb 60 1b be 55 a9 e8 bd b0 39 af bc 7f 27 c8 bd
       -0.15173618 -0.113604225 -0.021389812 -0.09773158
000110 eb 0d d9 ba 0c f6 bc bc 60 ca 07 be c2 33 2f 3d
       -0.0016559934 -0.023066543 -0.13260794 0.04277397
000120 dd 8a 03 3e a8 41 cb bd d6 e8 40 bd c8 5c a4 3c
       0.12845941 -0.09924632 -0.04709705 0.020063773
000130 cb 9a 46 3d 21 ec 31 3d 6e 7d d2 bc 36 a0 24 bd
       0.048487466 0.04343808 -0.025694575 -0.04019185
000140 24 e5 04 3e 74 2e 06 be 71 4b 56 bd 38 d3 40 be
       0.12978035 -0.13103658 -0.05231804 -0.18830574
000150 71 68 2d 3e 52 51 4a be a6 3a 1e 3e f9 7a 9c 3c
       0.16934372 -0.19757584 0.1545206 0.019101607
000160 bc 79 48 bc fa bd b9 bd 78 ee 17 3e 1f 9b 01 be
       -0.012236055 -0.09069438 0.14837062 -0.1265683
000170 fa 0f b5 3d a0 a4 c3 3b 34 b0 9b 3d 2a e9 02 3e
       0.08840938 0.0059705526 0.076019675 0.12784258
000180 ef 11 d8 3d d4 42 04 be 9d 4d 82 3c 2d 2a da bd
       0.105502956 -0.12916118 0.01590615 -0.10652576
000190 65 94 b9 3d 3f 38 90 bd 07 68 06 3e 60 88 01 be
       0.09061507 -0.07041978 0.13125621 -0.12649679
0001a0 8b ec 4e 3e 18 d4 14 3e c0 c1 d1 3c d4 4d be 3d
       0.20207421 0.14534032 0.025605083 0.09292188
0001b0 14 24 c9 3d ab 0a 0c 3c 41 18 c4 3d 38 e8 07 bd
       0.098213345 0.008547465 0.095749386 -0.033180445
0001c0 b0 6d 73 be 87 3e fd bc d1 6e b5 3d 3c b8 25 bd
       -0.23772311 -0.030913604 0.08859027 -0.040458903
0001d0 b2 39 82 bd 99 72 26 3c bd 63 eb 3c f9 9c 98 3d
       -0.06358661 0.010159158 0.028734082 0.07451815
0001e0 28 35 2a be d2 47 21 bd 82 83 65 bd 8e 0e af bd
       -0.1662184 -0.039375134 -0.05603362 -0.08547698
0001f0 91 77 9b 3d c3 82 56 be 75 32 b3 bd 57 b7 d1 bd
       0.07591165 -0.20948319 -0.08749858 -0.102400474
000200 82 6e 5a bd d9 cf a3 3d 3d 68 0a 3e a4 8e 06 3e
       -0.053328045 0.07998628 0.13516326 0.1314035
000210 d8 b5 e0 bd ac 4c 51 be 62 98 21 3e d6 a3 59 3c
       -0.10972184 -0.20439404 0.15780786 0.01328369
000220 96 60 7c bd 21 b7 1f be 5f 4e 92 3d fc 16 83 bd
       -0.06161555 -0.15597202 0.07143854 -0.06400868
000230 71 b6 14 3e b8 9d c8 3d 73 22 8e bd f0 4c 32 be
       0.14522721 0.097957075 -0.069401644 -0.17412162
000240 35 06 11 be c2 69 1b be 61 2e 08 3e 3c 68 05 3e
       -0.14162524 -0.15177062 0.13298942 0.13028044
000250 e4 42 ef bb fc 4e 00 3c f7 1f 17 3e d4 74 a8 3c
       -0.007301675 0.007831331 0.14758287 0.02056352
000260 d6 4b 4d 3e ba d6 a1 3d 76 9b 3e bd 25 eb 5c bd
       0.2004846 0.07902284 -0.046534978 -0.05393519
000270 64 11 96 bd 1f 7c 62 bd 9f 1e af 3c e1 a0 ad 3c
       -0.07327536 -0.055294152 0.021376906 0.021194877
000280 79 80 c4 3c 87 5a d1 3c 4d bf 01 3e f9 45 0e 3e
       0.023987042 0.025555862 0.12670632 0.1389388
000290 54 dc 92 3c 13 4a 82 3c 1d b3 8d bd f2 60 05 3e
       0.017927326 0.015904462 -0.06918929 0.13025263
0002a0 17 dd c8 3d e6 a2 9b bb 56 92 e7 bd 61 5b ff 3d
       0.098077945 -0.0047496436 -0.11307208 0.12468601
0002b0 21 ec f7 3d 17 d8 7b 3d 6d eb 27 3e 88 86 26 3d
       0.12105585 0.061485376 0.16398402 0.040655643
0002c0 16 74 e0 bd 0a c8 55 3e e4 61 1a be a4 9a c1 bd
       -0.10959642 0.2087709 -0.15076405 -0.094533235
0002d0 6e d1 39 be c5 c2 1a 3d 2b 72 ad bd aa 30 07 3d
       -0.18146297 0.037783403 -0.084690414 0.033005394
0002e0 60 2c 11 be c9 80 3e 3d 4a 18 88 3d 67 5c c0 3d
       -0.14177084 0.046509538 0.06645258 0.09392624
0002f0 29 0f 45 3e 09 bd 9e bc 68 06 0d be f1 df 8f 3c
       0.19244064 -0.019377248 -0.13771975 0.017562838
000300 c4 ea 52 be d3 4a 52 bd 91 78 73 3e d9 3a e6 bc
       -0.20597368 -0.05134089 0.23776461 -0.028104233
000310 91 9e 25 3e d4 c6 b6 3d 73 3e d4 3b df 1f 6e bd
       0.1617377 0.08924642 0.006477171 -0.058135863
000320 39 8a 9f 3d 2e 7b d9 3d 85 fb ae bc f1 23 dd bd
       0.07790036 0.10619198 -0.021360168 -0.10797871
000330 5a a7 27 be a6 46 f9 3d ea d1 11 be 7e a6 28 be
       -0.16372433 0.12171678 -0.14240232 -0.16469762
000340 f1 ca d5 3d 5a 0a a4 bd 2b 68 d0 bd 51 5d ea 3d
       0.104390986 -0.08009787 -0.101761185 0.1144358
000350 9d 2a c2 3c 32 1c c5 3d d4 79 0b be 22 e6 a0 3d
       0.02370196 0.096245185 -0.13620692 0.07856394
000360 51 f9 a6 bd 93 94 4b bd 45 8f 36 be e9 32 b5 3c
       -0.08153022 -0.04970224 -0.1782809 0.022119002
000370 de 38 09 3e 6d 42 13 3e d3 1e f3 bd 4d a3 07 be
       0.134006 0.14380808 -0.11871114 -0.13245888
000380 b7 a8 1e 3e d4 2f f8 3d 34 46 28 be 09 7c 8a bd
       0.15494047 0.121184975 -0.1643303 -0.06761939
000390 78 c3 e1 bd 15 43 03 bd f5 9f 74 3c 11 91 93 bd
       -0.11023611 -0.032046396 0.014930715 -0.072054036
0003a0 c7 f0 41 3d 01 eb 27 be e9 c1 0b 3e d8 ff 16 3e
       0.047348764 -0.1639824 0.1364819 0.14746034
0003b0 77 d6 26 3e 66 b1 35 be e9 ec f2 bd 7e 3f 37 be
       0.1629275 -0.17743453 -0.11861593 -0.17895314
0003c0 26 c3 2c ba 64 6a 1f be 18 f8 f9 bd 1e 54 fb 3c
       -0.00065903587 -0.15567929 -0.12205523 0.030679759
0003d0 69 9f 23 3d 68 8c de 3d 7a 15 27 3e 87 b1 a8 bd
       0.039946947 0.10866624 0.16316786 -0.08236986
0003e0 46 15 30 bc 57 d7 33 3e 6a f7 65 bd e0 07 fb ba
       -0.0107472595 0.17562614 -0.056144156 -0.0019152127
0003f0 2e 41 0e bd e1 a4 93 3d 51 0c 87 3c 94 ac 27 bd
       -0.03473013 0.072091825 0.016485365 -0.040936068

net.4.bias f4 [32]
000000 84 bc 59 bd 5b 32 d7 3d 6d 55 cf 3d 94 21 80 bd
       -0.053158298 0.105076514 0.101237155 -0.062564045
000010 e4 21 98 3d 15 24 f1 bd 97 45 89 3c 36 ac a0 bc
       0.07428339 -0.1177446 0.016756816 -0.019613367
000020 ad f0 e0 bd e8 09 93 39 60 1e 1a 3d 78 d6 16 be
       -0.10983405 0.00028045406 0.037626624 -0.14730251
000030 a6 05 15 3e b5 22 d8 bc dc ee fd 3d 37 c8 18 3c
       0.14552936 -0.026383737 0.123990744 0.009325079
000040 4f 94 aa 3d 55 37 33 be 4a 3b 21 3e 01 74 46 3b
       0.08329069 -0.17501576 0.15745273 0.0030281546
000050 e1 cd b8 3d 65 b6 23 3e 11 19 67 3d 57 f4 53 3d
       0.09023643 0.15987547 0.05642039 0.051746693
000060 c6 b4 de 3d 69 0b 02 3e 03 04 54 3a 68 37 a0 3b
       0.108743235 0.12699665 0.0008087756 0.0048894174
000070 74 e4 0f be fc 6e 31 3e 07 09 a1 3d 8f e1 55 bd
       -0.14051992 0.17327493 0.0786305 -0.052217063

net.6.weight f4 [32, 32]
000000 2c 6b 87 bc f6 c1 2d bd 42 2d 23 3e fc b0 aa 3d
       -0.016530596 -0.042421304 0.15935233 0.08334538
000010 37 ef 23 be cd 68 5c 3e 90 f1 04 3e 58 46 ea bd
       -0.16009222 0.21524353 0.12982774 -0.11439198
000020 29 b6 1b 3c c8 b1 e0 3d 9c 9d eb 3c 8e 79 01 bd
       0.00950388 0.10971409 0.028761677 -0.031610064
000030 5f 5f 60 bd 78 85 5d 3e 1d f1 a5 bd 9d 01 37 3e
       -0.054778453 0.21632946 -0.08102629 0.17871709
000040 3f 98 25 3e 49 98 03 3e e8 51 fa 3b ce ba d5 bc
       0.16171359 0.12851061 0.0076391585 -0.026090052
000050 4a 62 10 3d 35 12 f0 3d fb 19 8c be 84 fe ef ba
       0.035249986 0.11722223 -0.27363572 -0.0018310104
000060 bc 1b ab bd d4 c8 d5 bc 26 bc 50 3e c4 1a 38 bd
       -0.08354899 -0.026096739 0.20384273 -0.0449474
000070 01 d1 35 bc 0b 9f 68 3d 98 97 eb 3d 4d eb 18 bd
       -0.011097194 0.0567923 0.115035236 -0.037333775
000080 28 9b 08 3d 22 de a9 3d 7f 4d f0 bd 9a 65 2f bd
       0.033351094 0.082943216 -0.11733531 -0.042821504
000090 ed 44 86 bc df 65 58 3e c5 25 5d 3e bd d1 0e bd
       -0.016390288 0.2113261 0.21596439 -0.03486799
0000a0 85 d3 4b 3d e7 88 5e bd 4c b0 30 3e e7 c1 c4 bc
       0.049762268 -0.05432978 0.17254752 -0.024018241
0000b0 25 6e c6 bd 5d f1 6f 3d fd b8 a4 bd d7 72 33 3d
       -0.09688977 0.05857979 -0.08043096 0.04381069
0000c0 a6 58 d3 bd 9d 68 75 3d 9e 82 aa 3d 22 ef 7f bc
       -0.10319643 0.05991422 0.083256945 -0.015620979
0000d0 ed d6 21 3e 4b 69 fc 3d 1c 75 ae bd 35 76 1e 3d
       0.15804644 0.123247705 -0.085184306 0.03868695
0000e0 2c cc b4 3d 28 a3 23 3c 82 90 b4 bd e8 3e 82 bc
       0.08828005 0.00998763 -0.08816625 -0.015899137
0000f0 a3 a3 b9 3c a6 e5 1b 3e 0d 6c 7e 3d e3 e5 45 be
       0.022661036 0.15224323 0.062114764 -0.19325976
000100 31 24 6e bd 80 df 40 3e 3d b2 33 be b3 f7 02 be
       -0.058139984 0.18835258 -0.17548461 -0.12789802
000110 00 2c 05 3e cb 2e 1f 3c 71 9d 8e bd 1f 79 78 bd
       0.13005066 0.009715746 -0.06963623 -0.060662385
000120 27 24 1a bc 72 54 7d bd dd 61 3b be cd c3 1d be
       -0.009408033 -0.06184811 -0.1829905 -0.15406723
000130 e1 4d ca 3d 5a 3e f7 3d 6c 60 58 3e e7 f4 5d be
       0.098781355 0.120724395 0.21130532 -0.21675454
000140 ea db 6b bd 95 0a 9a 3b 74 da ff 3d b5 f4 d2 bd
       -0.057582773 0.0047009685 0.124928385 -0.103005804
000150 ea e6 5f 3d ec 1e 11 be 11 d6 d2 bc ee a0 ae ba
       0.054663576 -0.14171952 -0.02573684 -0.0013323107
000160 ea ca 82 bb de be 51 3d 3d 3e 66 be d2 17 22 3e
       -0.0039914744 0.051207416 -0.2248468 0.15829399
000170 c0 fc b8 bc 61 9d fe bd b2 8d 5f 3d 1c 06 38 3e
       -0.022581458 -0.124323614 0.05457849 0.1797108
000180 74 ec af bc 5f d1 c9 3d 46 dc 57 bd 06 44 e1 bd
       -0.021475054 0.098543875 -0.052700303 -0.109993026
000190 a6 96 1e 3e 69 59 9e bd f0 5c da 3d c0 12 9b bd
       0.15487155 -0.077318974 0.10662258 -0.07571936
0001a0 dc fb d4 3d c2 61 ac bd 19 bd e7 bc e9 0c cd bd
       0.10399601 -0.08417083 -0.028288411 -0.10012228
0001b0 02 62 3a be d9 fb a8 3d b7 9c 98 bd 9b 30 18 be
       -0.1820145 0.08251161 -0.07451766 -0.14862292
0001c0 d1 0d 0b 3d c6 5c 31 3e 17 97 0f 3d 70 76 a8 bd
       0.033948723 0.17320547 0.0350562 -0.08225715
0001d0 84 73 8e bc ad ca 03 be ad 33 15 3e eb a5 0f be
       -0.017389067 -0.12870283 0.14570494 -0.14028136
0001e0 3b bd ca bd ff 15 4c 3e 99 d0 36 be f8 c1 a9 bd
       -0.09899374 0.19930266 -0.17853011 -0.0828895
0001f0 ee ff 80 bd de 35 23 bd a3 35 fa 3d c9 69 0d bd
       -0.06298815 -0.039846294 0.12217262 -0.034524713
000200 4e f2 39 bd bd 72 25 3e ec 1b 47 ba c5 53 eb 3d
       -0.045397095 0.1615705 -0.0007595408 0.11490587
000210 cd bc 8e bd 4e 76 e5 bd 35 70 d1 bd 53 84 92 3c
       -0.06969605 -0.112042055 -0.1022648 0.017885363
000220 08 1b 33 bd 43 83 10 3e 1b 78 27 be ee 73 89 bd
       -0.04372695 0.14112572 -0.1635441 -0.06711565
000230 3a 7b 58 3d 3f dc b5 bb 25 ac ca 3d 03 25 2b be
       0.052851893 -0.005549937 0.09896115 -0.16713338
000240 46 8c 12 be ab 31 a1 3d 8f e0 8c 3c 66 82 27 3e
       -0.14311323 0.078708015 0.017196922 0.16358337
000250 55 71 0a 3e 97 c1 27 3c b2 cf c3 3d e6 d9 9c bc
       0.13519795 0.0102390265 0.09561099 -0.01914687
000260 76 f6 b1 3d e8 be de bd 31 67 d0 bd f9 c5 84 bd
       0.08689587 -0.10876256 -0.10175932 -0.06483073
000270 5f c7 84 bc 5e c0 98 3d bd 65 b9 3d e3 55 85 3d
       -0.016208349 0.07458566 0.09052608 0.06510522
000280 f9 0e 92 bd a7 0e 21 bd cc db f1 3d af 37 15 be
       -0.07131762 -0.039320614 0.11809501 -0.14572023
000290 ed 9c 62 bc cd f5 b2 3d 76 f0 18 3e 6c c6 14 be
       -0.013831359 0.08738289 0.14935479 -0.14528817
0002a0 96 64 1e 3e 08 18 86 3c e0 69 1b bc fd 5c 91 3d
       0.15468058 0.01636888 -0.009485692 0.07097814
0002b0 47 de 81 bc 28 6d 2e 3e 42 e6 10 3e e0 e3 60 bb
       -0.01585306 0.17033827 0.14150336 -0.0034315512
0002c0 92 0c 4b 3c 7b 7b 85 3d f4 de d3 3d 5d 74 b2 3d
       0.012393134 0.06517693 0.10345259 0.08713601
0002d0 cb 36 e4 bd e0 2d 49 3e 8f bd 67 3d c4 93 c5 3d
       -0.111432634 0.19646406 0.05657726 0.09647325
0002e0 f2 98 02 3e 5b b6 35 be 6c 51 37 3e 03 80 37 3c
       0.12753657 -0.17745344 0.17902154 0.011199954
0002f0 61 44 f0 bd e0 64 c4 bd 80 f5 32 be 4c 81 4c bd
       -0.11731792 -0.09589553 -0.17476463 -0.049927995
000300 d6 84 90 3c c9 06 b6 3d 51 09 e7 bd ab 72 57 3e
       0.017641466 0.08888013 -0.11281074 0.21039836
000310 43 be 03 be 49 5a d9 bc 05 1d aa 3c 57 b0 0e 3e
       -0.12865548 -0.02653231 0.02076579 0.13934456
000320 0a 93 41 bc 6e 45 2e be 01 fd f4 3d fe f5 e7 3d
       -0.011814842 -0.17018673 0.11962319 0.11326216
000330 93 ba b7 bd f5 94 50 3e 51 3c f9 bb 8e 96 29 3e
       -0.08971133 0.20369323 -0.007606067 0.16561338
000340 c1 23 18 3d f7 f9 e2 3d 3f 0c 58 bd 64 25 a8 bd
       0.037143473 0.11082833 -0.052746054 -0.08210257
000350 59 e5 c2 3d 54 05 47 3e e9 dd 75 be 9c f8 0e bd
       0.09516401 0.19435626 -0.24010433 -0.03490506
000360 f0 c7 d2 3d 9e 3a 3e 3d c3 96 2e 3e 1c 88 b1 3d
       0.10292041 0.04644262 0.17049699 0.08668539
000370 4b c1 b6 bd 9c d1 1a 3d e9 3e 2c bd 18 8f f2 bd
       -0.089235865 0.037797555 -0.042052183 -0.11843699
000380 24 99 59 be f4 8b 96 bc b8 1b 33 3d 72 79 48 bd
       -0.21249825 -0.018377282 0.043727607 -0.048943944
000390 d9 dc e2 3b 41 13 cc bd 31 ca 59 bd 53 64 ca bd
       0.0069232997 -0.0996461 -0.05317134 -0.098824166
0003a0 9b af fc 3d a0 f4 0a be 2c 22 82 bd 34 32 0f 3e
       0.123381816 -0.1356988 -0.06354174 0.13983995
0003b0 fc 42 1a 3e 30 ec 77 3e ad 62 81 3c 10 d6 aa 3d
       0.15064615 0.24211192 0.015794123 0.083416104
0003c0 7f c6 37 be 41 d9 3b be 7a 4b 97 3d 1f e3 b4 bd
       -0.17946814 -0.18344595 0.07387443 -0.088323824
0003d0 76 17 01 3e 48 09 42 3e ea 23 89 bd b6 a9 b1 3d
       0.12606606 0.18948853 -0.06696303 0.08674948
0003e0 df 3c 06 be 46 c1 38 3d 93 5b 58 3e 23 1d b6 3d
       -0.13109158 0.045106195 0.21128683 0.08892276
0003f0 65 92 db bd 69 56 70 3e ea 50 84 bd ed 3b 2e be
       -0.10721282 0.23470463 -0.06460746 -0.17015047

net.6.bias f4 [32]
000000 ca ff 70 3d 6d 43 9c 3d 49 23 18 3e b3 6e ea 3b
       0.05883769 0.07630048 0.1485721 0.0071543097
000010 4e 8e c6 ba bc 25 14 3e 70 64 10 be 41 d6 ee bd
       -0.0015148611 0.1446752 -0.14100814 -0.116619594
000020 96 aa 0b bd 22 9a c0 bd a3 53 d7 3d b6 92 97 bd
       -0.03409823 -0.094043985 0.10513999 -0.0740103
000030 1e 97 04 3e 5f fd 20 bd 4c d7 04 3e 71 8c ff bd
       0.12948272 -0.039304134 0.12972754 -0.12477959
000040 e1 d4 8a 3d ab fa 0d be 3c da c0 3d 82 40 d8 bd
       0.06778885 -0.13865153 0.09416625 -0.10559179
000050 ee 99 99 3c 84 6a 0d be d3 93 a3 bd 3f 58 c4 3d
       0.018750157 -0.13810164 -0.079871796 0.09587144
000060 87 95 d2 bd b5 74 0f be 47 69 0b be 20 b6 16 bd
       -0.10282426 -0.14009364 -0.13614379 -0.03679478
000070 54 2b b4 bb 69 1a d2 bd fa 65 16 bd ba 07 b9 3d
       -0.005498329 -0.102589436 -0.036718346 0.09034677

net.8.weight f4 [1, 32]
000000 2f 10 0e be 73 d3 2f be c8 58 a8 3d 46 9e 61 3e
       -0.13873361 -0.17170505 0.08220059 0.22033033
000010 0b 17 38 3e f4 95 07 be b2 0c 49 be 42 5a a1 bd
       0.1797754 -0.13240796 -0.19633749 -0.078785434
000020 10 0d a9 bd a8 a9 16 3e bf f5 08 be 3e 0c 0c 3e
       -0.082544446 0.14713156 -0.13374995 0.13676545
000030 1a f1 4a be ed 13 dd bd 15 55 bf bd dc 70 e2 3d
       -0.19818535 -0.10794816 -0.093424 0.110566825
000040 b9 f1 56 be 13 e0 3e 3e 47 18 40 3e b8 61 15 3e
       -0.20990647 0.18640165 0.18759261 0.14588058
000050 ca 1b 58 be 1f bd 80 3d dc 35 38 3e 83 12 1e 3e
       -0.2110435 0.06286072 0.17989296 0.15436749
000060 38 cd 2e 3e 04 cb 0b 3e 7e 32 47 be 50 9e cf bd
       0.17070472 0.13651663 -0.19452855 -0.101376176
000070 c6 4d 29 bd 01 c5 39 be 52 78 59 bd 45 26 1d 3e
       -0.041333936 -0.18141557 -0.053093262 0.1534663
